PyTorchCB/data.pth (torch, 4650 bytes, 6 tensors)

l1.weight f4 [8, 39]
0	0x3f19e7e3	0.60119456
1	0x3e5bdab6	0.2147015
2	0xbefa660d	-0.48905984
3	0x3df06968	0.11738855
4	0x3e9c5161	0.30530837
5	0x3e9225e4	0.28544533
6	0xbed9f603	-0.42570505
7	0xbec41373	-0.3829609
8	0xbece2b05	-0.40267196
9	0xbe39aac9	-0.18131556
10	0xbefa769a	-0.4891861
11	0xbefa6e17	-0.48912117
12	0xbebb7b06	-0.36617297
13	0xbe413aa7	-0.1887003
14	0x3eab179a	0.33416444
15	0x3ee72c99	0.45151213
16	0x3efd1471	0.49429658
17	0x3f047b68	0.51750803
18	0x3ed345ae	0.412641
19	0x3e3a8409	0.1821443
20	0x3f45868f	0.77158445
21	0x3df1633f	0.11786508
22	0x3ec143ed	0.37747136
23	0xbec536c1	-0.38518336
24	0x3edcae2f	0.43101642
25	0x3d93ec8a	0.072228506
26	0xbecdee7a	-0.40221006
27	0xbecf67cd	-0.4050888
28	0x3f0f89d8	0.5606971
29	0x3eda2d4d	0.42612687
30	0x3db19d95	0.086726345
31	0xbe99fcaa	-0.3007558
32	0x3ebbec0c	0.36703527
33	0x3e78440a	0.24244705
34	0x3e1f9020	0.15582323
35	0x3e94ce65	0.29063717
36	0x3f0019f6	0.50039613
37	0x3e48b498	0.19600141
38	0x3eab8c32	0.33505398
39	0x3e6e4c7f	0.23271368
40	0xbc960240	-0.01831162
41	0xbeb0f510	-0.34561968
42	0x3ee9cccf	0.4566407
43	0xbe12e729	-0.14345993
44	0x3e167c32	0.14695814
45	0xbe8edc4e	-0.27902454
46	0xbec0f614	-0.37687743
47	0xbec0ee55	-0.37681833
48	0xbd05cea4	-0.03266777
49	0xbec0e75f	-0.37676522
50	0xbec0ea2f	-0.37678668
51	0xbe99d2a3	-0.30043516
52	0xbda04770	-0.078261256
53	0x3f1c2642	0.60995877
54	0xbeb2babd	-0.34908095
55	0x3ed80ce9	0.4219735
56	0x3f0056d8	0.50132513
57	0x3f34d381	0.7063523
58	0xbe6c16ad	-0.23055525
59	0xbea8dab7	-0.32979366
60	0x3efc3bd5	0.49264398
61	0xbb379fc8	-0.002801882
62	0xbd63dafc	-0.05562876
63	0xbe19e521	-0.15028812
64	0xbed07cca	-0.40720206
65	0xbe9a172b	-0.300958
66	0xbea26b89	-0.31722668
67	0xbec0eafa	-0.37679273
68	0xbe855757	-0.26043198
69	0x3f216233	0.63040465
70	0xbddb0059	-0.10693426
71	0x3f0a68a0	0.54065895
72	0x3d9fdc59	0.078057
73	0xbebb9f38	-0.36644912
74	0x3f331399	0.6995178
75	0xbca4d3b8	-0.020120487
76	0xbe36248f	-0.17787383
77	0xbd824213	-0.06360259
78	0x3cb6efb8	0.022331104
79	0x3e81c233	0.25343475
80	0x3eaa15ec	0.3321985
81	0x3e5f3699	0.21798171
82	0x3e15848b	0.14601342
83	0xbde93366	-0.113867566
84	0x3e92aaad	0.2864584
85	0x3eea9eef	0.45824382
86	0x3e91721b	0.28407368
87	0x3e9c1575	0.3048512
88	0x3e5f4f75	0.21807654
89	0x3e854a47	0.26033232
90	0x3f07a9de	0.5299357
91	0x3e1ea3a3	0.1549211
92	0x3db9fe09	0.090816565
93	0x3f0d6709	0.55235344
94	0x3cca1d35	0.02467213
95	0x3e0442eb	0.12916152
96	0x3de69437	0.112587385
97	0x3f1681f1	0.58792025
98	0xbf044eb8	-0.51682615
99	0x3dca1fd4	0.09869352
100	0x3ea00121	0.3125086
101	0x3e67f9c3	0.2265387
102	0x3e8c648b	0.27420458
103	0xbe2810d7	-0.16412674
104	0x3eab4e02	0.33457953
105	0x3ee24f3b	0.44201073
106	0x3f240a69	0.64078385
107	0x3ecfb8eb	0.4057077
108	0x3ea3403a	0.31884938
109	0x3e9731ec	0.29530275
110	0x3e821fcf	0.25414893
111	0x3d8a5011	0.06753553
112	0xbef50783	-0.47857293
113	0x3e2f3837	0.17111288
114	0x3de28771	0.1106099
115	0xbea34b9e	-0.3189363
116	0xbdbb4da0	-0.09145665
117	0xbe30ce1b	-0.17266123
118	0xbe29352e	-0.16524193
119	0x3f051f81	0.52001196
120	0x3e2550d2	0.16144112
121	0xbea4b31c	-0.321679
122	0xbe26c631	-0.16286542
123	0x3e5f064c	0.21779746
124	0x3f10547b	0.56378907
125	0x3e8ca99e	0.27473158
126	0x3e9b69c9	0.30354145
127	0x3f0c7ac9	0.54874855
128	0x3ee8d35d	0.45473757
129	0x3eab8833	0.3350235
130	0x3e16ea55	0.14737828
131	0x3ebbb7c2	0.36663634
132	0xbcfdd1ce	-0.030983832
133	0x3f0343d7	0.5127539
134	0x3ecdc805	0.40191665
135	0x3e8e6231	0.2780929
136	0x3da8ea6f	0.0824784
137	0xbee16a53	-0.4402643
138	0x3ddb66dd	0.10712979
139	0xbe4e0b52	-0.20121506
140	0x3eaa73bc	0.33291423
141	0x3dd7a029	0.10528595
142	0xbc81184e	-0.01575866
143	0x3e80b16f	0.2513537
144	0x3e3bc338	0.18336189
145	0xbeda6dc4	-0.4266187
146	0x3df09837	0.11747783
147	0x3f14893c	0.58021903
148	0x3ec552d9	0.3853977
149	0x3ee04dcb	0.4380935
150	0xbdb4a29f	-0.0882008
151	0xbeb37350	-0.35048914
152	0x3ec22b7f	0.3792381
153	0x3d95da59	0.07317037
154	0xbe27b079	-0.16375913
155	0xbd7a460e	-0.061101966
156	0x3d2e581a	0.04256449
157	0xbcf3230b	-0.029679796
158	0x3eb598c3	0.3546811
159	0x3dfa6eba	0.12228151
160	0xbe825c62	-0.25461107
161	0xbc15dd47	-0.009146995
162	0x3f001e13	0.5004589
163	0x3ed47c4a	0.41501075
164	0x3f088e2b	0.5334193
165	0x3e55de61	0.20885612
166	0x3eafbe63	0.3432494
167	0x3ea586d7	0.32329437
168	0x3eedd075	0.46448103
169	0x3ea71bfe	0.32638544
170	0xbe11be1b	-0.14232676
171	0xbebfd69a	-0.37468415
172	0xbe55b494	-0.20869666
173	0xbdde8112	-0.10864462
174	0xbda40391	-0.08008493
175	0xbe85a2a8	-0.2610066
176	0xbe3c1384	-0.1836682
177	0xbdfa47c9	-0.12220723
178	0xbd4cc229	-0.049989853
179	0x3ebafeff	0.36522672
180	0x3a9e2363	0.001206499
181	0xbe7637da	-0.24044743
182	0x3ea62279	0.32448176
183	0x3f026ed0	0.50950336
184	0xbf10ce47	-0.56564754
185	0xbe6f0436	-0.2334145
186	0xbccb8544	-0.02484382
187	0x3dc2ecef	0.09517848
188	0x3ecaad6b	0.39585432
189	0x3e970b86	0.2950098
190	0xbdfd9817	-0.123825245
191	0xbe043e15	-0.12914307
192	0x39a448b0	0.00031334674
193	0xbe6d1978	-0.23154247
194	0x3d5e903b	0.054336768
195	0x3defa4b0	0.117013335
196	0xbd836ea8	-0.064175904
197	0xbf0a92d3	-0.54130286
198	0x3ec3b6e6	0.38225478
199	0xbebaacb2	-0.3645988
200	0x3f15dcf6	0.58540285
201	0xbe90e34d	-0.28298417
202	0xbeea0f15	-0.45714632
203	0xbe2904ed	-0.16505785
204	0xbcbd2c7d	-0.023092503
205	0xbeaff8dd	-0.34369555
206	0xbe3b07f9	-0.1826476
207	0xbeb31f90	-0.34985018
208	0x3d0569ff	0.03257179
209	0x3f00b27e	0.5027236
210	0xbedb4450	-0.42825556
211	0x3f35105b	0.7072808
212	0x3f0f3015	0.5593274
213	0x3eee568e	0.4655041
214	0xbe8c8be4	-0.27450478
215	0x3f5645d0	0.83700275
216	0x3e20709b	0.15667956
217	0xbdda788e	-0.10667525
218	0xbe795e16	-0.24352297
219	0xbc03bcbf	-0.008040606
220	0x3ec9c7fa	0.39410383
221	0xbdd5e029	-0.10443146
222	0xbea4c5e5	-0.32182232
223	0xbf3ee556	-0.7456869
224	0xbece1a5f	-0.40254495
225	0x3ee0ab27	0.4388058
226	0xbe623e87	-0.22094165
227	0x3f09aea1	0.5378209
228	0x3f23c793	0.639764
229	0x3ef80afb	0.48445877
230	0x3f0a5d1b	0.5404832
231	0x3d2a95fc	0.041646942
232	0x3ecd2935	0.400705
233	0x3ee755ec	0.4518274
234	0x3ec3c757	0.38238022
235	0x3f1ab0fe	0.6042632
236	0x3e88a919	0.2669151
237	0xbe445bd2	-0.19175652
238	0x3eb49320	0.35268497
239	0x3ccdaaa3	0.02510578
240	0x3f109b07	0.5648655
241	0x3ebb09ae	0.36530823
242	0x3f01f32b	0.5076167
243	0x3cfa7154	0.030571617
244	0x3f0e5791	0.55602366
245	0x3ef1a771	0.4719806
246	0x3f003e31	0.50094897
247	0x3d1df8b6	0.038567267
248	0xbf1132cf	-0.5671815
249	0x3f1c0bfa	0.60955775
250	0xbf08e843	-0.53479403
251	0xbf20488b	-0.6261069
252	0xbf11c99b	-0.5694825
253	0x3e934be8	0.2876885
254	0x3f2a2eb8	0.6647754
255	0x3d9c6856	0.07637088

l1.bias f4 [8]
0	0x3efa7aff	0.48921964
1	0x3ec0f01d	0.37683192
2	0x3f1fd7c9	0.62438637
3	0x3ee17eea	0.4404214
4	0x3f10ca57	0.56558746
5	0x3f3ee37b	0.7456586
6	0x3f386f2e	0.72044647
7	0x3ef831a9	0.48475388

l2.weight f4 [8, 8]
0	0x3f23f16b	0.6404025
1	0x3f89e0d8	1.0771742
2	0x3fae6415	1.3624293
3	0x3f85111b	1.0395845
4	0xbdd78d90	-0.10525048
5	0xbe9fc685	-0.31206146
6	0xbef3de29	-0.47630432
7	0x3ed0497a	0.40681058
8	0xbf0d8b36	-0.55290544
9	0xbf4d4132	-0.80177605
10	0x3f8dd762	1.1081355
11	0x3ed73ed9	0.42040136
12	0x3d9d8480	0.07691288
13	0xbf1abbbe	-0.6044272
14	0x3f6b2ae5	0.91862327
15	0x3f314fd3	0.6926243
16	0x3e9bc119	0.3042076
17	0x3f7725d6	0.9654211
18	0x3e1b5498	0.15168989
19	0x3f4cf478	0.8006053
20	0x3f498437	0.7871737
21	0x3f9b3aea	1.2127354
22	0xbe848a30	-0.2588668
23	0x3f84eb96	1.0384395
24	0xbe5f23f6	-0.21791062
25	0x3d3d6708	0.046240836
26	0x3d200090	0.039063036
27	0xbe853e1a	-0.26023942
28	0xbc4a1a80	-0.01233542
29	0xbea251c2	-0.31703
30	0xbe97dce4	-0.29660714
31	0x3e397f76	0.18115029
32	0x3d2a57cf	0.041587647
33	0x3ea12e19	0.31480482
34	0xbe36e55d	-0.17860933
35	0x3e6a8d42	0.22905448
36	0xbe02a3bb	-0.1275777
37	0xbea20247	-0.31642362
38	0x3e521c2b	0.20518558
39	0xbeadda8e	-0.33955806
40	0xbf099feb	-0.5375964
41	0xbf1c7d6c	-0.6112888
42	0x3f00e2a1	0.5034581
43	0x3f2e3d8c	0.68062663
44	0x3f6d3011	0.9265147
45	0xbeec1ce6	-0.46115798
46	0x3f4ab78d	0.79186326
47	0x3efd29a4	0.49445832
48	0x3fb12972	1.3840773
49	0xbf30cfa7	-0.6906685
50	0x3eeeceb4	0.46642077
51	0xbf8575c2	-1.0426562
52	0xbf1c8dc7	-0.61153835
53	0x3ec7ca5c	0.39021575
54	0x3f9c887d	1.2229153
55	0xbf72c5cd	-0.9483307
56	0xbf83a908	-1.0285959
57	0xbf427678	-0.7596202
58	0x3f13fac7	0.5780453
59	0x3f095cc6	0.53657186
60	0x3f80fc9e	1.0077093
61	0xbcc4f462	-0.024042312
62	0x3e9362c5	0.28786293
63	0x3f1e7069	0.61890274

l2.bias f4 [8]
0	0x3e1f701d	0.15570112
1	0x3e5a6eac	0.2133128
2	0x3e013bbf	0.12620448
3	0xbea98dac	-0.331159
4	0xbeb803f1	-0.35940507
5	0xbe15559b	-0.14583437
6	0x3f317339	0.6931644
7	0xbdf988bb	-0.121842824

l3.weight f4 [4, 8]
0	0xbe9fce8b	-0.31212267
1	0x3f55614d	0.83351594
2	0x3ba2a214	0.004963169
3	0x3e964a5d	0.2935361
4	0x3e4daeb7	0.2008618
5	0x3f8d8463	1.1056026
6	0xbf99b801	-1.2009279
7	0x3f4cec11	0.8004771
8	0x3f4b7ee5	0.794905
9	0xbf055e47	-0.5209698
10	0x3f4fdf84	0.8120043
11	0x3d9c9b18	0.07646769
12	0x3e271e1b	0.16320078
13	0xbf31b91a	-0.6942307
14	0xbf8b9cf7	-1.0907277
15	0xbf47d82e	-0.7806424
16	0xbfb15ac5	-1.3855826
17	0xbfb6475f	-1.4240531
18	0x3dc8d303	0.09805872
19	0x3e2e7a92	0.17038944
20	0xbe9f9d97	-0.3117492
21	0xbfc30e3f	-1.5238723
22	0x3f6be9db	0.9215371
23	0xbf312b7b	-0.6920697
24	0x3eb07ef8	0.3447187
25	0x3f54d65a	0.83139575
26	0xbfb827bc	-1.4387126
27	0x3e550722	0.20803502
28	0xbdc91087	-0.098176055
29	0x3c8ba4bd	0.017046327
30	0x3ec891d3	0.39173755
31	0xbf501b2b	-0.81291455

l3.bias f4 [4]
0	0xbe4706cc	-0.19436187
1	0x3d06b9d7	0.032892074
2	0x3e855532	0.2604156
3	0xbd8c7e98	-0.06860083
